…
    \ 255 255 255]\n  [255 255 255 ... 255 255 255]\n  [255 255 255 ... 255 255 255]]\n\
    \n [[255 255 255 ... 255 255 255]\n  [255 255 255 ... 255 255 255]\n  [255 255\
    \ 255 ... 255 255 255]\n  ...\n  [255 255 255 ... 255 255 255]\n  [255 255 255\
    \ ... 255 255 255]\n  [255 255 255 ... 255 255 255]]], (3, 240, 403), uint8),\
    \ robot0_eef_pos:Box([-inf -inf -inf], [inf inf inf], (3,), float32))"
policy:
  desc: null
  value: "MultiInputActorCriticPolicy(\n  (features_extractor): CombinedExtractor(\n\
    \    (extractors): ModuleDict(\n      (calibrated_camera_image): NatureCNN(\n\
    \        (cnn): Sequential(\n          (0): Conv2d(3, 32, kernel_size=(8, 8),\
    \ stride=(4, 4))\n          (1): ReLU()\n          (2): Conv2d(32, 64, kernel_size=(4,\
    \ 4), stride=(2, 2))\n          (3): ReLU()\n          (4): Conv2d(64, 64, kernel_size=(3,\
    \ 3), stride=(1, 1))\n          (5): ReLU()\n          (6): Flatten(start_dim=1,\
    \ end_dim=-1)\n        )\n        (linear): Sequential(\n          (0): Linear(in_features=76544,\
    \ out_features=256, bias=True)\n          (1): ReLU()\n        )\n      )\n  \
    \    (robot0_eef_pos): Flatten(start_dim=1, end_dim=-1)\n    )\n  )\n  (mlp_extractor):\
    \ MlpExtractor(\n    (shared_net): Sequential()\n    (policy_net): Sequential(\n\
    \      (0): Linear(in_features=259, out_features=64, bias=True)\n      (1): Tanh()\n\
    \      (2): Linear(in_features=64, out_features=64, bias=True)\n      (3): Tanh()\n\
    \    )\n    (value_net): Sequential(\n      (0): Linear(in_features=259, out_features=64,\
    \ bias=True)\n      (1): Tanh()\n      (2): Linear(in_features=64, out_features=64,\
    \ bias=True)\n      (3): Tanh()\n    )\n  )\n  (action_net): Linear(in_features=64,\
    \ out_features=7, bias=True)\n  (value_net): Linear(in_features=64, out_features=1,\
    \ bias=True)\n)"
policy_class:
  desc: null
  value: <class 'stable_baselines3.common.policies.MultiInputActorCriticPolicy'>
policy_kwargs:
  desc: null
  value: '{}'
rollout_buffer:
  desc: null
  value: <stable_baselines3.common.buffers.DictRolloutBuffer object at 0x7fd26b307b80>
sde_sample_freq:
  desc: null
  value: -1
seed:
  desc: null
  value: None
start_time:
…
