…
255 255 255 ... 255 255 255]]], (3, 240, 403), uint8), robot0_eef_pos:Box([-inf -inf -inf], [inf inf inf], (3,), float32))', 'action_space': 'Box([-1. -1. -1. -1. -1. -1. -1.], [1. 1. 1. 1. 1. 1. 1.], (7,), float32)', 'n_envs': 3, 'num_timesteps': 0, '_total_timesteps': 40, '_num_timesteps_at_start': 0, 'eval_env': 'None', 'seed': 'None', 'action_noise': 'None', 'start_time': 1648143693.2399683, 'policy': 'MultiInputActorCriticPolicy(\n  (features_extractor): CombinedExtractor(\n    (extractors): ModuleDict(\n      (calibrated_camera_image): NatureCNN(\n        (cnn): Sequential(\n          (0): Conv2d(3, 32, kernel_size=(8, 8), stride=(4, 4))\n          (1): ReLU()\n          (2): Conv2d(32, 64, kernel_size=(4, 4), stride=(2, 2))\n          (3): ReLU()\n          (4): Conv2d(64, 64, kernel_size=(3, 3), stride=(1, 1))\n          (5): ReLU()\n          (6): Flatten(start_dim=1, end_dim=-1)\n        )\n        (linear): Sequential(\n          (0): Linear(in_features=76544, out_features=256, bias=True)\n          (1): ReLU()\n        )\n      )\n      (robot0_eef_pos): Flatten(start_dim=1, end_dim=-1)\n    )\n  )\n  (mlp_extractor): MlpExtractor(\n    (shared_net): Sequential()\n    (policy_net): Sequential(\n      (0): Linear(in_features=259, out_features=64, bias=True)\n      (1): Tanh()\n      (2): Linear(in_features=64, out_features=64, bias=True)\n      (3): Tanh()\n    )\n    (value_net): Sequential(\n      (0): Linear(in_features=259, out_features=64, bias=True)\n      (1): Tanh()\n      (2): Linear(in_features=64, out_features=64, bias=True)\n      (3): Tanh()\n    )\n  )\n  (action_net): Linear(in_features=64, out_features=7, bias=True)\n  (value_net): Linear(in_features=64, out_features=1, bias=True)\n)', 'learning_rate': 0.0003, 'tensorboard_log': 'runs/2o48jdkk', 'lr_schedule': '<function constant_fn.<locals>.func at 0x7fd26b2a0ca0>', '_last_obs': "OrderedDict([('calibrated_camera_image', array([[[[143, 149, 138, ..., 216, 214, 213],\n         [142, 157, 136, ..., 220, 206, 209],\n         [136, 153, 145, ..., 217, 209, 202],\n         ...,\n       
…
